SE-ResNet/saved_models/GAiA_Network.pth (torch, 223645 bytes, 77 tensors)

weight f4 [64, 15, 1, 1]
0	0x3d631cdd	0.055447448
1	0x3df43829	0.11924774
2	0xbe66b930	-0.22531581
3	0x3ea50837	0.3223283
4	0x3f78a2aa	0.97123206
5	0x3f1f68d2	0.6226932
6	0x3e9f1ff4	0.31079066
7	0x3dc43dc7	0.095820956
8	0x3d38b6f7	0.045096364
9	0xbed9ab18	-0.42513347
10	0xbf25a10a	-0.6469885
11	0xbe92d99f	-0.28681657
12	0xbd634dd4	-0.055494145
13	0xbe11b560	-0.14229345
14	0xbccea5db	-0.02522557
15	0xbeafa5a3	-0.34306058
16	0x3eaa8170	0.33301878
17	0xbe77b5e8	-0.24190485
18	0xbf11e281	-0.5698624
19	0xbfae3795	-1.3610712
20	0xbf7734e6	-0.9656509
21	0x3ebffc9d	0.37497416
22	0x3f18a754	0.5963032
23	0xbe900915	-0.2813193
24	0x3f314960	0.69252586
25	0x3e064361	0.1311164
26	0x3cf337e9	0.029689746
27	0x3d4f811b	0.050660234
28	0xbdf834dd	-0.12119458
29	0xbcb45438	-0.022012815
30	0xbd724ec3	-0.059157144
31	0x3cd105f3	0.025515532
32	0xbbed9e4a	-0.0072515355
33	0xbdc830cf	-0.097749345
34	0xbcc87dd8	-0.02447407
35	0x3f109dc1	0.56490713
36	0xbf0d0b09	-0.55094963
37	0x3ea197fe	0.31561273
38	0x3db4d252	0.08829178
39	0x3f818b8a	1.0120709
40	0x3f022516	0.5083784
41	0x3e49ba3f	0.19699953
42	0x3d782478	0.060581654
43	0x3e89586e	0.2682528
44	0xbdaa5c40	-0.083183765
45	0x3e71ff52	0.23632553
46	0xbf2f18ba	-0.68397105
47	0xbcad9d67	-0.02119322
48	0x3c971835	0.01844416
49	0xbf30af3f	-0.69017404
50	0x3e9466d3	0.289847
51	0xbf31e39b	-0.69487923
52	0x3ef17fec	0.4716791
53	0x3f71beca	0.94431746
54	0xbe77898e	-0.24173567
55	0xbf1bafe8	-0.60815287
56	0xbf46c053	-0.77637213
57	0xbab37cb4	-0.0013693781
58	0xbdf2eeb5	-0.11861936
59	0xbd2d1a6f	-0.042261537
60	0xbe0cb60b	-0.13741319
61	0x3dc11ce9	0.09429342
62	0xbd04d72e	-0.032431774
63	0xbe4ff170	-0.20306945
64	0xbf1570eb	-0.58375424
65	0xbf22b12e	-0.63551605
66	0x3f106053	0.5639698
67	0x3cc21da2	0.02369577
68	0x3f38c5f6	0.72177064
69	0x3f4b60a0	0.79444313
70	0xbf42bf6f	-0.76073354
71	0xbea0311e	-0.31287473
72	0xbdd603a2	-0.10449912
73	0xbe861b50	-0.26192713
74	0x3d91cf04	0.07119563
75	0x3f7221a8	0.94582605
76	0xbe9e7d13	-0.309548
77	0x3de562ad	0.112004615
78	0xbf0f4136	-0.5595888
79	0xbf5288bb	-0.82239884
80	0xbe347090	-0.17621064
81	0x3dd381a8	0.10327464
82	0xbebd8ccb	-0.3702148
83	0xbe87fb68	-0.26558995
84	0xbf084ba3	-0.5324041
85	0xbf66e78f	-0.9019708
86	0x3f02f85e	0.5116023
87	0xbdf885f3	-0.12134924
88	0x3e1f1d65	0.15538557
89	0x3e209631	0.15682293
90	0xbcfe9062	-0.031074706
91	0xbde2eb8a	-0.11080082
92	0xbf35cb76	-0.7101358
93	0xbf2525ef	-0.6451101
94	0xbf1e3754	-0.61803174
95	0x3d447cdc	0.047970638
96	0x3ea61f6e	0.32445854
97	0x3ed9431c	0.42434013
98	0x3edd0889	0.43170574
99	0x3d6d6840	0.05796075
100	0x3f967841	1.1755449
101	0xbe2fcfeb	-0.17169158
102	0xbdcd8f1a	-0.1003706
103	0xbe06f072	-0.1317766
104	0x3d129510	0.03578669
105	0x3f0a53a8	0.540339
106	0x3f2fb4bc	0.68635154
107	0x3f5ee416	0.8706678
108	0x3e8fabb1	0.28060678
109	0xbf2a7307	-0.6658177
110	0xbdaf93ae	-0.085730895
111	0x3b680610	0.0035404004
112	0xbf08c4c3	-0.53425235
113	0xbed663f2	-0.41873127
114	0xbeaa87b9	-0.33306673
115	0xbf6509f0	-0.8946829
116	0xbe3dbdf4	-0.18529493
117	0x3d640a97	0.05567416
118	0xbe65e697	-0.22451244
119	0x3bdb234a	0.0066875564
120	0x3e961187	0.29310247
121	0x3e9a344d	0.30118027
122	0xbe735346	-0.23762235
123	0x3f0f5cbf	0.56000894
124	0x3f6f8e0c	0.9357612
125	0x3f00d548	0.5032544
126	0xbe9c286b	-0.30499586
127	0xbf3de1d8	-0.74172735
128	0xbee6198a	-0.4494136
129	0xbf43f75e	-0.7654933
130	0xbf443a12	-0.7665111
131	0xbe1baf56	-0.15203604
132	0xbc511d91	-0.012763397
133	0xbe1d40b3	-0.15356712
134	0xbd6ae92d	-0.05735128
135	0x3d43ce48	0.047804147
136	0xbea4209a	-0.32056123
137	0xbf241285	-0.6409076
138	0x3de4f537	0.111795835
139	0x3f33bb48	0.70207644
140	0xbf3ba73c	-0.73302054
141	0xbd45d066	-0.048294447
142	0xbe426e99	-0.18987502
143	0xbd281db1	-0.04104394
144	0xbf0e239d	-0.5552309
145	0x3f6ed84e	0.93298805
146	0x3dd1cc22	0.10244013
147	0xbc8d808c	-0.01727321
148	0xbcbea085	-0.023269901
149	0xbc2cf39b	-0.010556127
150	0xbed87a02	-0.42280585
151	0x3ea7ec6c	0.32797563
152	0x3f303aa1	0.6883946
153	0x3eb9ab89	0.36263683
154	0x3fbaba95	1.458819
155	0xbe11dbfd	-0.14244075
156	0xbdcd53f9	-0.10025782
157	0xbf35d4d5	-0.7102788
158	0xbf35aa40	-0.70962906
159	0xbe2d6213	-0.16931944
160	0xbee30aea	-0.44344264
161	0xbdc1d44a	-0.09464319
162	0x3bbbbbc5	0.005729171
163	0x3d581129	0.05275074
164	0xbbdaa142	-0.0066720555
165	0xbd4b29c7	-0.04960039
166	0x3eb3b9c1	0.35102656
167	0x3e3aa2b9	0.18226136
168	0x3f28ac09	0.65887505
169	0x3f46810e	0.7754067
170	0x3e506cb7	0.20353971
171	0xbf351412	-0.7073375
172	0xbeda2475	-0.4260594
173	0xbee3a49b	-0.44461522
174	0xbee54b5f	-0.44784066
175	0xbf37b9a4	-0.7176764
176	0xbdb5fba3	-0.088858865
177	0xbb62b4ed	-0.0034592703
178	0xbd8c5942	-0.06852962
179	0xbd18c72d	-0.037299324
180	0x3d3f4f2e	0.04670637
181	0xbd25c38d	-0.040469695
182	0x3dc3e6de	0.09565519
183	0xbee7d0cb	-0.45276484
184	0xbf3254cb	-0.69660634
185	0xbe90ad5a	-0.28257257
186	0xbef85d96	-0.485089
187	0xbe8f3087	-0.2796671
188	0xbdeb32fb	-0.11484333
189	0x3f0adb3b	0.5424077
190	0x3fd14528	1.634923
191	0xbeb5af6e	-0.35485405
192	0xbc830211	-0.015992196
193	0x3d8628ba	0.06550737
194	0x3a98a258	0.0011645062
195	0xbe5a48bf	-0.21316813
196	0x3fa3b558	1.2789717
197	0xbecf8ba4	-0.40536225
198	0x3e9904dd	0.29886523
199	0xbcc24cac	-0.0237182
200	0x3ebaf390	0.36513948
201	0xbdc58918	-0.09645289
202	0xbf6217e8	-0.8831773
203	0xbebd3b0b	-0.3695911
204	0xbdf18268	-0.11792451
205	0xbed113e9	-0.40835503
206	0x3f1d7fa7	0.61522907
207	0x3ddb24d9	0.107003875
208	0x3e8c6b05	0.274254
209	0x3e66e8c5	0.22549732
210	0xbf5b8b85	-0.85759765
211	0x3d5bd2b2	0.05366773
212	0x3e9aa966	0.30207366
213	0xbe9e8610	-0.30961657
214	0xbebda150	-0.37037134
215	0xbf463fcb	-0.7744109
216	0x3d822ec2	0.063565746
217	0x3f527f70	0.82225704
218	0xbe8221f8	-0.2541654
219	0x3e150bdf	0.1455531
220	0x3e4393bc	0.19099325
221	0x3f0fd3a7	0.5618233
222	0x3cd95d92	0.026533876
223	0x3e4dc156	0.20093283
224	0x3d9084b9	0.07056565
225	0x3e0d69c6	0.1380988
226	0xbebc665e	-0.3679685
227	0xbecb1ece	-0.3967194
228	0x3e92aa90	0.28645754
229	0x3f102837	0.56311363
230	0x3f1d5237	0.61453575
231	0x3eda2f3e	0.42614168
232	0x3f0020f1	0.50050265
233	0xbee94912	-0.4556356
234	0xbf0379ec	-0.51357913
235	0x3f56f53a	0.83967936
236	0xbeed97e1	-0.46404937
237	0x3cdb7c40	0.026792645
238	0xbe2ea87c	-0.17056459
239	0xbdae08c6	-0.08497767
240	0x3e4d0b3d	0.20023818
241	0xbf1292e8	-0.5725541
242	0xbe2e1fd2	-0.17004326
243	0xbea6d1a1	-0.3258181
244	0xbf625e46	-0.884251
245	0xbf01a7ac	-0.5064647
246	0xbe1c6035	-0.15271075
247	0x3f6246c7	0.8838925
248	0xbe7fe4e0	-0.24989653
249	0x3decf3ff	0.11569976
250	0x3f8ccb1f	1.0999488
251	0x3e6a929d	0.22907491
252	0x3c6af90a	0.014341602
253	0xbe7341f7	-0.23755632
254	0x3e007c9f	0.12547539
255	0xbe34e249	-0.17664446

bias f4 [64]
0	0xbd9bb927	-0.076036744
1	0x3e4eafec	0.20184296
2	0x3e3bc64f	0.18337367
3	0xbd234c58	-0.03986773
4	0xbf334ad3	-0.7003605
5	0x3efe1461	0.49624923
6	0x3e4e43c7	0.20143043
7	0xbe97ab4d	-0.2962288
8	0x3f302c9f	0.68818086
9	0xbebb62af	-0.36598727
10	0x3e819cd6	0.2531497
11	0xbe4a17d5	-0.19735654
12	0x3e259b27	0.16172467
13	0xbd82ba07	-0.06383138
14	0x3e938a40	0.28816414
15	0x3cea6d69	0.028616624
16	0x3d6275b1	0.05528802
17	0xbea2c703	-0.3179246
18	0x3cfff130	0.031242937
19	0x3e2270f9	0.15863408
20	0x3b371527	0.0027936192
21	0x3e06393b	0.13107769
22	0x3d0776f7	0.033072438
23	0x3d3dad9c	0.046308145
24	0xbe376507	-0.17909633
25	0xbd4c102c	-0.04982011
26	0x3cb878f1	0.022518607
27	0xbe45cc59	-0.19316234
28	0xbf31d6de	-0.69468486
29	0xbc8eb496	-0.017420094
30	0x3bcc7547	0.0062395665
31	0x3ec783f6	0.38967866
32	0x3efe2b7b	0.49642548
33	0x3db13767	0.08653145
34	0x3e9cb673	0.30607948
35	0x3e81bb78	0.2533834
36	0xbee3698f	-0.44416472
37	0x3f225154	0.63405347
38	0x3ed00f40	0.40636635
39	0x3ecc7f96	0.3994109
40	0x3f3d5a80	0.7396622
41	0x3d3eeefc	0.046614632
42	0x3e4252ea	0.18976942
43	0x3e925449	0.2857993
44	0xbf34e888	-0.70667315
45	0xbdbb976b	-0.0915974
46	0xbd5cb465	-0.053882975
47	0xbc8dbbbd	-0.017301435
48	0xbf1bacdb	-0.6081063
49	0xbe5e94a5	-0.21736391
50	0x3ce25877	0.027630074
51	0xbed4e2dd	-0.41579333
52	0xbd0efffc	-0.034912094
53	0x3f1144f0	0.56745815
54	0xbeb6f788	-0.35735726
55	0xbe8e6c3f	-0.2781696
56	0x3f4bb3de	0.7957133
57	0xb9cc4fb4	-0.00038969296
58	0x3d719c6d	0.05898707
59	0xbebbf566	-0.36710662
60	0x3e4e0530	0.20119166
61	0x3e1ae268	0.1512543
62	0xbe1523c9	-0.14564432
63	0xbe4d4fd9	-0.2004999

weight f4 [64]
0	0x3f2a2247	0.66458553
1	0x3f214c4b	0.6300704
2	0x3f14c41f	0.5811176
3	0x3f72c5ad	0.9483288
4	0x3f29680c	0.6617439
5	0x3f3c4f1e	0.73558223
6	0x3f70ac12	0.9401256
7	0x3f39e58f	0.72615904
8	0x3f58c857	0.84680694
9	0x3f6f8130	0.935565
10	0x3f858905	1.043244
11	0x3f84992d	1.0359246
12	0x3f32a461	0.6978207
13	0x3f630f6b	0.886954
14	0x3f64655a	0.8921715
15	0x3f1e00b8	0.61719847
16	0x3f067441	0.5252114
17	0x3f5ecd43	0.87031955
18	0x3f79c224	0.9756186
19	0x3f82f99c	1.0232425
20	0x3f55bdd6	0.8349279
21	0x3f49c60e	0.7881783
22	0x3f2cbc89	0.6747518
23	0x3f15ad3e	0.5846747
24	0x3f6ccab1	0.9249678
25	0x3ebd3080	0.36951065
26	0x3f506fff	0.8142089
27	0x3f63bf8b	0.88964146
28	0x3f563c76	0.83686006
29	0x3f772525	0.96541053
30	0x3f3e401a	0.7431656
31	0x3f229fea	0.6352526
32	0x3f0e288e	0.5553063
33	0x3f67f638	0.90610075
34	0x3f8677fd	1.0505368
35	0x3f2be3c4	0.6714442
36	0x3f2e3cb2	0.68061364
37	0x3f6a6794	0.915643
38	0x3f8f51bc	1.1196818
39	0x3f83ab53	1.0286659
40	0x3f42b628	0.760592
41	0x3f80e180	1.0068817
42	0x3f64b4ed	0.8933857
43	0x3f8b4bb0	1.0882473
44	0x3f610ce2	0.8791028
45	0x3f6ce2f6	0.92533815
46	0x3f495f9c	0.78661513
47	0x3f287b36	0.65813005
48	0x3f7c8e35	0.9865449
49	0x3f4bda7d	0.7963026
50	0x3f4ac915	0.79213077
51	0x3f078f27	0.5295281
52	0x3f70a66b	0.94003934
53	0x3f63027b	0.8867566
54	0x3f4a45e9	0.79012924
55	0x3ede9e16	0.43479985
56	0x3f678e0d	0.9045113
57	0x3f6d0ac0	0.9259453
58	0x3f7ed37c	0.9954145
59	0x3f7557d7	0.9583716
60	0x3f37ab68	0.7174592
61	0x3f64fb05	0.89445525
62	0x3f274967	0.6534638
63	0x3f1b1899	0.6058441

bias f4 [64]
0	0xbe4058dc	-0.18783897
1	0x3d2c516c	0.042069837
2	0xbe555682	-0.20833781
3	0x3d608f25	0.054824013
4	0x3c88f240	0.016717076
5	0xbe709ef5	-0.23498137
6	0x3df4d77c	0.11955163
7	0xbb4a0444	-0.0030825296
8	0x3dbdd679	0.09269423
9	0xbce0bd3d	-0.027433986
10	0xbcbec701	-0.023288252
11	0x3ec7c74d	0.39019242
12	0xbea254d8	-0.31705356
13	0xbe68b41f	-0.2272496
14	0xbe880cab	-0.26572165
15	0xbdead7ad	-0.11466918
16	0xbe025a25	-0.127297
17	0xbe83c3f4	-0.25735438
18	0xbe32f551	-0.17476393
19	0x3de866fc	0.11347768
20	0x3c228702	0.009919884
21	0xbf026548	-0.5093579
22	0xbe759909	-0.2398416
23	0x3e54061f	0.2070546
24	0xbe5cef49	-0.21575655
25	0xbe726f69	-0.23675312
26	0xbe749006	-0.23883066
27	0xbdb60032	-0.08886756
28	0x3cab7167	0.020928098
29	0xbe716923	-0.23575263
30	0x3d133057	0.035934772
31	0x3d0e8771	0.034797136
32	0xbe4bbe54	-0.19896823
33	0xbd3dc6a9	-0.046332035
34	0xbe8feda8	-0.28111005
35	0x3d5790c0	0.05262828
36	0xbcb40e2e	-0.021979418
37	0xbdf3eaf8	-0.11910051
38	0x3d659327	0.05604854
39	0x3eab2f17	0.33434364
40	0xbe8aad21	-0.27085212
41	0xbe8fb2c3	-0.28066072
42	0x3e124c5b	0.1428694
43	0x3e5f197f	0.2178707
44	0x3eadf663	0.3397704
45	0x3df039a1	0.11729742
46	0x3da64d9f	0.08120274
47	0xbe012e16	-0.12615237
48	0x3da8fe3a	0.08251615
49	0xbe027404	-0.12739569
50	0x3e82fb62	0.25582415
51	0x3e122503	0.14271931
52	0xbea2f8e6	-0.3183052
53	0xbdab4ef3	-0.08364668
54	0xbea203d0	-0.31643534
55	0xbd9599a5	-0.07304696
56	0xbd18a22b	-0.03726403
57	0xbe2d237f	-0.16908072
58	0xbe78f8a1	-0.24313594
59	0x3db90640	0.09034395
60	0x3e16606a	0.14685217
61	0x3dd8fee1	0.10595489
62	0xbe1ed77f	-0.15511893
63	0xbe1312a4	-0.1436258

running_mean f4 [64]
0	0xbf029363	-0.51006144
1	0xbe329121	-0.17438175
2	0x3f96f179	1.1792442
3	0xbee42408	-0.4455874
4	0xbfd47e9b	-1.6601137
5	0x3f584025	0.84472877
6	0xbe9dbd92	-0.30808693
7	0xbf7cc211	-0.9873362
8	0x3e538a27	0.2065817
9	0xbeece77a	-0.46270353
10	0x3ec9d3f8	0.39419532
11	0xbeec692d	-0.46173993
12	0x3ea9b8af	0.33148715
13	0x3f29e4dd	0.6636484
14	0x3f55bff0	0.83496
15	0xbec94ad3	-0.393149
16	0xbf5b3a30	-0.8563566
17	0x3e02d9e2	0.12778428
18	0x3e5d56f8	0.21615207
19	0x3f084cd6	0.5324224
20	0x3eab4141	0.33448222
21	0x3f827e26	1.0194747
22	0x3f645cf5	0.8920434
23	0xbed77411	-0.4208074
24	0x3ea706af	0.32622287
25	0xbecae618	-0.39628673
26	0x3f3b509f	0.73169893
27	0x3eaa507f	0.3326454
28	0xbf29958b	-0.6624381
29	0x3f2e6575	0.6812356
30	0xbe940f4a	-0.28917915
31	0xbd8bb660	-0.06821895
32	0xbeb94502	-0.3618546
33	0x3f08a629	0.5337854
34	0x3f84af34	1.0365968
35	0xbee3779b	-0.4442719
36	0xbc819acb	-0.015820881
37	0x3f4f1c1b	0.8090226
38	0x3ee1ad6b	0.4407762
39	0x3e598aad	0.21244307
40	0x3fab5e9c	1.3388247
41	0x3e76311b	0.2404217
42	0xbe000c2c	-0.12504643
43	0x3d62c7f4	0.05536647
44	0xbf826dbd	-1.018974
45	0xbebfdfe0	-0.3747549
46	0xbcded31c	-0.027200274
47	0xbedcecae	-0.43149322
48	0xbf764521	-0.9619923
49	0x3efb56f0	0.49089766
50	0xbe95bc21	-0.29245093
51	0xbf86e213	-1.0537742
52	0x3f04af49	0.51829964
53	0x3f5aa0e4	0.8540175
54	0x3e260e1c	0.1621632
55	0xbfa11cc6	-1.2586906
56	0x3f94c0d4	1.1621346
57	0x3f0df18a	0.55446684
58	0x3f396b8c	0.7242973
59	0xbf0a74fb	-0.5408475
60	0xbea1e8a5	-0.31622806
61	0x3e545aea	0.20737806
62	0x3f66e3b6	0.9019121
63	0xbfbe2896	-1.4856136

running_var f4 [64]
0	0x3f2f67c1	0.6851769
1	0x3f1235e3	0.57113475
2	0x401a7528	2.4134007
3	0x3f0f65f9	0.5601497
4	0x401262ee	2.2872882
5	0x3f70ed40	0.94112015
6	0x3f1cdfc6	0.6127895
7	0x3fd7c81e	1.6857946
8	0x3f5adf55	0.8549703
9	0x3d698365	0.057010073
10	0x3e1d377d	0.15353198
11	0x3e7cf626	0.24703273
12	0x3e5323d8	0.20619142
13	0x402308e3	2.5474174
14	0x3fb46a92	1.4095023
15	0x3f7eca95	0.99527866
16	0x3ff54d91	1.9164296
17	0x3f2d7d4a	0.677693
18	0x3e37c95e	0.17947909
19	0x3eb8b416	0.36074895
20	0x3ece1dc7	0.40257093
21	0x3f41d9d3	0.75723
22	0x3fff947f	1.9967192
23	0x3f49be20	0.7880573
24	0x3f5d871a	0.86534274
25	0x3ecca133	0.39966735
26	0x3fabdc20	1.3426552
27	0x3f961039	1.1723701
28	0x3e46ce36	0.194146
29	0x3fc6ca17	1.5530423
30	0x3e4fb779	0.20284833
31	0x3f6806f6	0.9063562
32	0x4023e8af	2.5610769
33	0x3f3ad874	0.7298653
34	0x3f95b743	1.1696552
35	0x3f8e314e	1.1108797
36	0x3ef9ab2a	0.487634
37	0x3e985514	0.2975241
38	0x3d93b0a6	0.072114274
39	0x3df9eb6f	0.122031085
40	0x3f49af60	0.78783226
41	0x3e09bf61	0.13451912
42	0x3ef99a3a	0.48750478
43	0x3ec6d5e7	0.3883507
44	0x3f051da2	0.5199834
45	0x3ed0b2b0	0.40761328
46	0x3d9e0cca	0.07717283
47	0x3f33afbd	0.7019003
48	0x3ed46cb5	0.41489187
49	0x3f8e6f40	1.1127701
50	0x3ea72c62	0.3265105
51	0x3fdb8ee0	1.7152977
52	0x3f62262f	0.88339514
53	0x3eaaf3dc	0.33389175
54	0x3ee87bd7	0.45406982
55	0x4026ba56	2.605123
56	0x3f05dc62	0.522894
57	0x3f8cc4d6	1.099757
58	0x3f7afd5a	0.98042834
59	0x3e5539d3	0.2082284
60	0x3f58d5dd	0.8470133
61	0x3def521b	0.11685582
62	0x407029e8	3.7525578
63	0x40c915dd	6.283919

weight f4 [64, 64, 1, 1]
0	0xbcc4ff70	-0.024047583
1	0xbe42a2ad	-0.19007368
2	0xbec07059	-0.37585714
3	0xbe098504	-0.13429648
4	0xbe89507c	-0.26819217
5	0xbe6d370c	-0.2316553
6	0xbe131797	-0.14364468
7	0xbcecd5d0	-0.028910547
8	0x3f0dc779	0.55382496
9	0x3e8f20b1	0.2795463
10	0x3d77fb2f	0.06054228
11	0x3eefe71c	0.4685601
12	0xbe2bc18f	-0.16773055
13	0xbe1d8959	-0.15384425
14	0xbe50bb9c	-0.20384067
15	0x3e06020f	0.13086723
16	0xbe969a26	-0.2941448
17	0xbe83ef8a	-0.2576869
18	0x3d22110d	0.039567042
19	0xbe861637	-0.26188824
20	0xbe95c6a7	-0.29253122
21	0xbe57ce48	-0.21074784
22	0xbe92f6cf	-0.28703925
23	0xbdce085b	-0.100601874
24	0xbe930bf6	-0.28720063
25	0x3e5405aa	0.20705286
26	0xbe889cb6	-0.2668206
27	0xbd6dd539	-0.058064673
28	0xbedea5ee	-0.4348597
29	0xbe129f6f	-0.14318632
30	0x3d8de596	0.06928556
31	0x3e2a30f6	0.1662024
32	0x3de0e43b	0.109810315
33	0xbeb6605b	-0.35620388
34	0xbe57c91c	-0.21072811
35	0x3e06c6cd	0.13161774
36	0xbe948425	-0.29007068
37	0xbd61ace3	-0.05509652
38	0x3e07937b	0.13239853
39	0xbe7a965a	-0.24471417
40	0xbe807ca7	-0.25095102
41	0xbe3142e5	-0.17310674
42	0xbdced7b7	-0.10099738
43	0x3e8cff8d	0.2753872
44	0xbeca7878	-0.39545035
45	0xbe872770	-0.26397276
46	0x3d34b5da	0.04411874
47	0xbd7f10b2	-0.06227178
48	0xbd42de80	-0.047575474
49	0xbd7e327d	-0.062059868
50	0xbe02ebb7	-0.1278523
51	0xbe23945f	-0.15974568
52	0xbe9169b3	-0.28400955
53	0xbeebc41c	-0.46048057
54	0xbe4c8df0	-0.1997602
55	0xbe22d496	-0.15901408
56	0xbd3751d7	-0.044755783
57	0xbe254168	-0.16138232
58	0xbe7fef46	-0.2499362
59	0xbead25f5	-0.3381802
60	0x3dc5c108	0.096559584
61	0xbe028413	-0.12745695
62	0xbd13a2a9	-0.036043797
63	0x3dac501d	0.08413718
64	0x3eb587e6	0.35455245
65	0xbd143c6a	-0.036190428
66	0xbbca27c5	-0.0061692917
67	0xbeee66c1	-0.4656277
68	0xbeb03822	-0.34417826
69	0xbe1e2c17	-0.15446506
70	0x3b161a5b	0.0022903893
71	0xbf29574f	-0.6614885
72	0x3e024ba6	0.1272417
73	0x3e8bf67d	0.27336493
74	0x3f847203	1.0347294
75	0xbc9fc295	-0.019501964
76	0xbd54d775	-0.05196329
77	0xbdc1ca3c	-0.09462401
78	0x3de0516b	0.10953029
79	0x3df4e052	0.11956848
80	0xbe0bbb54	-0.13645679
81	0xbc8ac6ce	-0.0169405
82	0xbd20df66	-0.03927555
83	0xbe02cea8	-0.12774146
84	0xbd47b7b3	-0.048759174
85	0x3dca844d	0.098885156
86	0x3db7d13d	0.08975456
87	0xbd5d4881	-0.054024223
88	0x3d979582	0.07401563
89	0x3e7b338f	0.24531387
90	0x3dfb9ea3	0.12286117
91	0x3e72e939	0.2372178
92	0xbe246ef0	-0.16057944
93	0xbd6f29a5	-0.058389325
94	0x3eed2196	0.46314687
95	0xbe81ce57	-0.25352737
96	0x3eb692b3	0.35658798
97	0x3d51a8bc	0.05118631
98	0x3e62df24	0.22155434
99	0x3d385bcc	0.04500942
100	0xbe1f59f5	-0.1556166
101	0x3eb5774e	0.35442585
102	0x3f1cb380	0.61211395
103	0x3e032521	0.12807132
104	0x3d97f1d6	0.074191734
105	0xbe09ff42	-0.1347628
106	0x3da0b63f	0.07847261
107	0x3da531ce	0.0806614
108	0xbd594930	-0.053048313
109	0x3dd9c63a	0.10633512
110	0x3e958503	0.29203042
111	0xbe921f8a	-0.28539687
112	0xbea6ac4c	-0.32553327
113	0x3e65c220	0.22437334
114	0xbda02646	-0.078198
115	0x3e1dc3b8	0.15406692
116	0xbc6e5a04	-0.014547829
117	0xbc0461a1	-0.008079917
118	0xbd399a45	-0.04531314
119	0xbe6a76a8	-0.22896826
120	0x3e3570ea	0.17718855
121	0x3e8c3cb1	0.27390054
122	0x3dca34ab	0.09873327
123	0xbebed1dd	-0.37269488
124	0xbc9db5c3	-0.01925171
125	0xbd1dd44c	-0.03853254
126	0x3d66221c	0.056184873
127	0xbee8d21e	-0.45472807
128	0xbef8857b	-0.48539338
129	0xbe490b1a	-0.19633141
130	0x3ba13370	0.004919462
131	0x3e034de4	0.12822682
132	0xbe3e9974	-0.18613225
133	0x3edcc3af	0.43118045
134	0xbf1363d2	-0.5757419
135	0x3d4e8339	0.050418112
136	0xbd64ad9f	-0.05582964
137	0xbe79850d	-0.24367161
138	0x3da757b9	0.08171029
139	0x3d229a01	0.03969765
140	0xbe953240	-0.291399
141	0x3ebe0cf2	0.3711925
142	0x3ecbf126	0.3983242
143	0xbe476ab2	-0.19474295
144	0xbc76f4cd	-0.0150730135
145	0x3dca9b4c	0.09892902
146	0x3d36e1f1	0.04464907
147	0x3a49ecec	0.00077028456
148	0xbdb89b34	-0.09013978
149	0x3d438378	0.0477328
150	0x3ea1759d	0.31535044
151	0x3e8d91d8	0.27650332
152	0xbe54e923	-0.2079206
153	0xbf13f587	-0.5779652
154	0x3e8de575	0.27714124
155	0x3eaf24b5	0.34207693
156	0x3dde2d9a	0.108485416
157	0x3e354cd0	0.17705083
158	0x3df2b288	0.118504584
159	0xbe9ca7e8	-0.30596852
160	0xbed6a1c5	-0.41920295
161	0x3d362cfd	0.044476498
162	0x3e594a42	0.21219733
163	0xbd70c4be	-0.058781378
164	0xbe45e80d	-0.19326802
165	0x3e506760	0.20351934
166	0xbe4ae167	-0.19812547
167	0xbef1acea	-0.47202235
168	0x3e8e1c67	0.27756044
169	0xbe6acb32	-0.22929075
170	0xbf0f8b2c	-0.56071734
171	0x3dee2fab	0.11630186
172	0xbf159a60	-0.5843868
173	0xbf19e97f	-0.6012191
174	0x3ea21542	0.31656843
175	0xbf1da709	-0.61583
176	0xbe015946	-0.12631711
177	0xbe96032d	-0.29299298
178	0xbe08e228	-0.13367522
179	0xbf214805	-0.6300052
180	0x3e9df140	0.30848122
181	0x3e3231d4	0.1740182
182	0x3f3705df	0.71493334
183	0xbeb09485	-0.3448831
184	0xbce074bf	-0.027399419
185	0xbe61403c	-0.2199716
186	0x3e035a8c	0.1282751
187	0xbe4cee5e	-0.20012805
188	0x3d00f402	0.031482704
189	0x3f030543	0.51179904
190	0x3ea17612	0.31535393
191	0xbed61021	-0.4180918
192	0x3d526349	0.051364217
193	0x3ba72cff	0.0051017995
194	0xbe71ca33	-0.23612289
195	0xbd951794	-0.07279888
196	0x3d3bcbcc	0.045848653
197	0xbe48e543	-0.19618706
198	0x3e9f2675	0.31084028
199	0xbe60d838	-0.21957481
200	0xbeab663f	-0.33476445
201	0x3e9b8722	0.30376536
202	0xbdeda40e	-0.116035566
203	0xbe9a4f73	-0.3013874
204	0x3e2a102c	0.16607732
205	0xbebf9459	-0.37417868
206	0xbe49d3fe	-0.19709775
207	0x3e043159	0.1290945
208	0x3bd9d32f	0.0066474895
209	0x3e02274b	0.12710302
210	0xbdb90874	-0.090348154
211	0xbd1e3fe0	-0.038635135
212	0xbbf44266	-0.0074542044
213	0xbe353480	-0.17695808
214	0xbebc641f	-0.36795136
215	0xbe185eed	-0.14879961
216	0xbec9ea92	-0.39436775
217	0x3e057ddb	0.13036291
218	0xbed0c20c	-0.40773046
219	0xbed7d3fb	-0.42153916
220	0x3c618fc1	0.013767184
221	0xbeaf4924	-0.3423549
222	0xbdf90ef8	-0.12161058
223	0xbeea5379	-0.4576681
224	0xbe4dad94	-0.20085746
225	0xbe49d18c	-0.19708842
226	0xbe1adb3a	-0.15122691
227	0xbe42caf1	-0.19022729
228	0xbd9ee36d	-0.07758222
229	0x3b09f3bb	0.0021049816
230	0x3c0ca84b	0.008585046
231	0x3ecd187d	0.40057746
232	0xbe94d633	-0.2906967
233	0x3e384187	0.17993747
234	0x3e2a4c74	0.16630727
235	0xbe659200	-0.22418976
236	0x3ee535d1	0.4476762
237	0x3ede98cf	0.4347596
238	0x3d6fd755	0.058554966
239	0xbe5cb639	-0.21553887
240	0x3e8e20cd	0.277594
241	0xbeac54b4	-0.33658373
242	0x3edde7f7	0.43341038
243	0xbdc9dab2	-0.09856166
244	0xbe2a589e	-0.16635367
245	0xbdcb83f3	-0.09937277
246	0xbe4b2d6b	-0.19841544
247	0xbdd50030	-0.104004264
248	0x3d042510	0.032261908
249	0xbf0d3fdb	-0.5517556
250	0xbed71f06	-0.42015857
251	0xbdd4739d	-0.10373614
252	0xbecf95fc	-0.40544116
253	0x3bc2ab90	0.005940862
254	0xbecb0d19	-0.3965843
255	0xbea90e4b	-0.33018717

bias f4 [64]
0	0x3f0025e0	0.5005779
1	0xbcc1181b	-0.023571065
2	0xbdcaf3db	-0.09909793
3	0xbc3ae070	-0.011406049
4	0x3d3d9d87	0.046292808
5	0x3df9f169	0.122042485
6	0x3ec6dcbd	0.38840285
7	0x3e4f4ca9	0.20244087
8	0x3c8742fb	0.016511431
9	0x3ea31ddd	0.3185872
10	0xbe68d5a6	-0.2273775
11	0xbe3d103f	-0.18463229
12	0xbf32deea	-0.6987139
13	0x3e95ed73	0.29282722
14	0x3cbd9f1f	0.023147164
15	0xbeb4d2d4	-0.353171
16	0x3e57dae7	0.21079598
17	0x3ec06b15	0.37581697
18	0x3eed7c43	0.46383867
19	0xbe91b97a	-0.2846182
20	0xbe4324cb	-0.19057004
21	0x3e493edb	0.19652884
22	0xbf3d43e8	-0.7393174
23	0xbe092f2e	-0.13396904
24	0x3e8d3598	0.2757995
25	0xbe2edaaf	-0.17075609
26	0xbdc0bfbf	-0.09411573
27	0xbef3893b	-0.47565636
28	0xbe98a3a0	-0.29812336
29	0xbdfba717	-0.12287729
30	0xbda6f3b0	-0.081519485
31	0x3cbe40d2	0.023224268
32	0xbdb6a505	-0.08918194
33	0x3deeca46	0.11659674
34	0x3d589f83	0.052886497
35	0x3e643af5	0.22288115
36	0xbd5baa99	-0.05362949
37	0x3d6f02bf	0.05835223
38	0xbd7a0845	-0.061043043
39	0x3e9fe1a0	0.31226826
40	0x3d86769c	0.06565592
41	0xbef6a2b8	-0.4817102
42	0xbdd8ad45	-0.105799235
43	0x3f29018e	0.66018
44	0x3dc98a54	0.09840837
45	0xbe8f50ee	-0.27991432
46	0xbc817f48	-0.015807763
47	0x3d02a392	0.031894274
48	0x3df3f27a	0.11911483
49	0xbd2d7888	-0.042351276
50	0xbeb205c0	-0.34770012
51	0x3c1f77ff	0.009733199
52	0xbc5cd3a6	-0.013478195
53	0x3e03e424	0.12879997
54	0xbe8ebf64	-0.27880394
55	0x3aca48c9	0.0015433069
56	0x3e308245	0.17237194
57	0xbe45acca	-0.19304195
58	0x3e644c6f	0.22294782
59	0xbd14e0e7	-0.036347296
60	0x3e2d6141	0.1693163
61	0xbdc7b705	-0.09751705
62	0x3d89d2ed	0.06729684
63	0x3c3fd5ff	0.0117087355

weight f4 [64]
0	0x3f94d062	1.1626093
1	0x3f35f650	0.7107897
2	0x3ef9738f	0.48720977
3	0x3f870a06	1.0549934
4	0x3f861909	1.047639
5	0x3f9d769d	1.2301823
6	0x3e9fe1e9	0.31227043
7	0x3f28010a	0.65626585
8	0x3f33b6ee	0.70201004
9	0x3f330d94	0.69942594
10	0x3f513ca6	0.8173317
11	0x3ec6a509	0.38797787
12	0x3f86d9d7	1.053523
13	0x3f165af0	0.5873251
14	0x3ec20c40	0.3789997
15	0x3f8b165f	1.0866202
16	0x3f984cdb	1.1898454
17	0x3f8942ed	1.0723549
18	0x3fa4c206	1.2871711
19	0x3f6e2a99	0.9303375
20	0x3f563e0c	0.83688426
21	0x3ee1d796	0.44109792
22	0x3f8f9e68	1.1220217
23	0x3f4cc871	0.7999335
24	0x3f9ac06f	1.2089976
25	0x3f044b49	0.51677376
26	0x3f8e1b97	1.110217
27	0x3f88b080	1.0678864
28	0x3f00013f	0.500019
29	0x3ea716e4	0.32634652
30	0x3f8c4a20	1.0960121
31	0x3f30b908	0.69032335
32	0x3f8713f2	1.0552962
33	0x3f91c532	1.1388304
34	0x3f84e0ce	1.0381105
35	0x3f67d75c	0.9056299
36	0x3f8ccb24	1.0999494
37	0x3f72656c	0.9468601
38	0x3eea63dd	0.45779315
39	0x3f87838c	1.058702
40	0x3f4e1449	0.804997
41	0x3f723fc7	0.94628567
42	0x3ea57d2c	0.3232206
43	0x3f763622	0.9617635
44	0x3f699820	0.9124775
45	0x3f726d6f	0.9469823
46	0x3eff87be	0.4990825
47	0x3f340a45	0.7032817
48	0x3e9871a4	0.297742
49	0x3f071527	0.5276665
50	0x3f72c10a	0.94825804
51	0x3f96b645	1.1774374
52	0x3e363793	0.17794637
53	0x3f4391f4	0.7639458
54	0x3eff55cb	0.49870142
55	0x3f805a74	1.0027604
56	0x3f9d46c8	1.2287226
57	0x3ef6d7bc	0.48211467
58	0x3f525ed4	0.82175946
59	0x3f81eb4a	1.014993
60	0x3f223901	0.6336823
61	0x3ebc6839	0.36798266
62	0x3f94e4a4	1.1632276
63	0x3f5d1ce6	0.8637222

bias f4 [64]
0	0x3ec6847b	0.3877295
1	0xbe5091ac	-0.2036807
2	0xbe89e698	-0.26933742
3	0x3ecbf863	0.39837942
4	0x3e98ade3	0.29820165
5	0x3e277637	0.16353689
6	0xbebf3d22	-0.37351328
7	0xbe0aba36	-0.13547596
8	0xbe0689b8	-0.13138473
9	0xbe66cab9	-0.2253827
10	0xbcad0499	-0.021120356
11	0xbf1cdf9f	-0.6127872
12	0x3edc8782	0.43072134
13	0xbe8263ca	-0.25466758
14	0xbed734b5	-0.420324
15	0x3f15b98c	0.5848625
16	0xbd9e1078	-0.07717985
17	0x3f1a5177	0.60280555
18	0x3e46d11f	0.19415711
19	0xbd8ba87a	-0.06819244
20	0x3dff6e2d	0.12472186
21	0xbf0d2fe9	-0.5515123
22	0xbe068ca3	-0.13139586
23	0x3de22dd1	0.11043895
24	0x3dbda16d	0.09259305
25	0xbef885c7	-0.48539564
26	0x3ec3af2f	0.38219592
27	0x3ee6ebd6	0.45101804
28	0xbe8ed795	-0.2789885
29	0xbec474cf	-0.38370368
30	0x3ed36ca0	0.41293812
31	0xbe19f997	-0.15036617
32	0x3e97b95f	0.29633614
33	0x3ed26f77	0.41100666
34	0x3ee35125	0.44397846
35	0x3cf54c1b	0.029943516
36	0x3f03d682	0.5149919
37	0xbe792bfe	-0.24333188
38	0xbe583a73	-0.21116047
39	0x3e505ebd	0.2034864
40	0x3ddd364d	0.10801373
41	0xbe344027	-0.17602597
42	0xbe65e0a4	-0.22448975
43	0x3ed1f8cd	0.41010132
44	0x3e2cb622	0.16866353
45	0xbdfd9151	-0.123812325
46	0xbe84f6ae	-0.25969452
47	0xbe41f287	-0.18940173
48	0xbe44343f	-0.19160555
49	0xbe4265c9	-0.1898414
50	0x3e0c9b25	0.13731058
51	0xbc077f14	-0.008270044
52	0xbef114c9	-0.4708617
53	0xbe3ef58e	-0.18648359
54	0xbdc799aa	-0.09746106
55	0xbb8bd8fc	-0.00426781
56	0x3f0c65c1	0.54842764
57	0xbeb9455b	-0.36185727
58	0x3da15e0c	0.07879266
59	0x3f066b03	0.52507037
60	0xbe8bd4a4	-0.2731067
61	0xbe61289e	-0.2198815
62	0x3e8d3e9b	0.27586827
63	0xbe6d7bba	-0.23191729

running_mean f4 [64]
0	0xbfc85cd7	-1.5653332
1	0x3f03dc04	0.5150759
2	0xbf92464d	-1.1427704
3	0xbfbc2000	-1.4697266
4	0xbfe2b663	-1.771191
5	0xbf16d359	-0.5891624
6	0xc01113a9	-2.266825
7	0x3fe62d18	1.7982512
8	0x3ed7b8a3	0.42133054
9	0x3fce0daa	1.609792
10	0x3eb0406a	0.34424144
11	0xbfd428d8	-1.6574965
12	0xc028771c	-2.6322699
13	0x3fc3397c	1.5251918
14	0xc0588d27	-3.3836153
15	0xbf9ed6ac	-1.2409263
16	0x3edda908	0.43293023
17	0xbfc9e3f6	-1.5772693
18	0xc004b07a	-2.0732713
19	0x3e089b31	0.13340451
20	0xc01011d8	-2.251089
21	0x3f5a599f	0.85293
22	0xc025c894	-2.5903673
23	0xc024f599	-2.57749
24	0xbfa40b8f	-1.2816027
25	0x4056c1ce	3.355579
26	0xc0265740	-2.5990753
27	0xc01f90fd	-2.4932244
28	0xbf50e161	-0.815939
29	0xc031f5f3	-2.7806365
30	0xc01d451d	-2.4573433
31	0x3f1e54d4	0.6184819
32	0xc0108463	-2.2580802
33	0xbf5d9547	-0.86555904
34	0xbfe72aee	-1.8059976
35	0xc0199753	-2.399861
36	0xbfdade07	-1.7099007
37	0x3f26c17e	0.65138996
38	0xc0817886	-4.0459623
39	0x3fcd79cd	1.6052796
40	0xc03a29ad	-2.9087937
41	0x3fa36479	1.2765037
42	0xbfb14e20	-1.3851967
43	0xbfb98313	-1.4493126
44	0xc022654d	-2.537433
45	0xbff63405	-1.9234625
46	0x3e1c2736	0.15249333
47	0x3ec35e71	0.3815799
48	0xbf414469	-0.7549501
49	0x3f2c378c	0.6727226
50	0xc01ab1a8	-2.4170933
51	0x3eec3fda	0.46142465
52	0xc0348665	-2.8207028
53	0x3f515a3b	0.81778306
54	0x3e384d3f	0.17998217
55	0x3f067a7c	0.52530646
56	0xbf74a773	-0.9556801
57	0xbf858d43	-1.0433735
58	0xc021e263	-2.5294425
59	0xbfee1e1e	-1.8602941
60	0x3ffd2fbf	1.9780196
61	0xbf0b568a	-0.54428923
62	0xc0132035	-2.2988408
63	0x3e880c2c	0.26571786

running_var f4 [64]
0	0x4134fe2b	11.312053
1	0x409ebbea	4.9604387
2	0x411b8434	9.719776
3	0x413461cb	11.273875
4	0x4135b71f	11.357207
5	0x40aec2ae	5.4612646
6	0x41ee6d44	29.803352
7	0x408d3d34	4.413721
8	0x40d45d00	6.6363525
9	0x4180c322	16.09528
10	0x40be2e3c	5.943144
11	0x402f40ca	2.7383294
12	0x4149f29d	12.621732
13	0x4096dd7f	4.714538
14	0x40f40d44	7.6266193
15	0x40ec8dca	7.392308
16	0x402cca12	2.6998334
17	0x416e52ed	14.895246
18	0x41315ecf	11.085647
19	0x40a36ba3	5.1068892
20	0x417a3dde	15.640104
21	0x408d451b	4.4146857
22	0x41179adb	9.4753065
23	0x419eefe4	19.867134
24	0x410f938d	8.973523
25	0x4021f182	2.5303655
26	0x418b2817	17.394575
27	0x41440116	12.250265
28	0x41637dab	14.218181
29	0x413df99d	11.873441
30	0x416be33b	14.742976
31	0x40933d39	4.6012235
32	0x415949d4	13.580524
33	0x412e2cda	10.88595
34	0x41429c58	12.16317
35	0x416afdb7	14.686942
36	0x41483601	12.513185
37	0x402685ad	2.601909
38	0x42597b1f	54.370235
39	0x405bef5f	3.436485
40	0x41b42120	22.516174
41	0x408d5daa	4.4176836
42	0x42051fbf	33.281002
43	0x414a26d2	12.634478
44	0x41655697	14.33364
45	0x40a35614	5.1042576
46	0x40a046db	5.0086493
47	0x41014e2d	8.081586
48	0x41157bb9	9.342706
49	0x41269666	10.411718
50	0x411af636	9.68511
51	0x3fd256b3	1.6432709
52	0x40edf837	7.4365497
53	0x40bed40e	5.9633856
54	0x410919f8	8.56884
55	0x3fbda9b8	1.4817419
56	0x410d0586	8.8138485
57	0x412c843e	10.782286
58	0x41bbacb9	23.459337
59	0x416a57e8	14.6464615
60	0x406a5261	3.661278
61	0x41baf3ac	23.36898
62	0x41444f59	12.269372
63	0x40d8a9be	6.7707205

weight f4 [4, 64]
0	0xbd3f0979	-0.046639893
1	0x3e029175	0.127508
2	0xbe6d953b	-0.23201458
3	0x3d48015c	0.04882942
4	0x3e7aeaca	0.24503627
5	0x3ef09c81	0.46994403
6	0x3ef12b10	0.47103167
7	0x3f9adcbe	1.2098615
8	0xbf28877d	-0.6583174
9	0xbe078890	-0.13235688
10	0x3d6948f0	0.056954324
11	0x3ba2dbcf	0.004970051
12	0x3f24db93	0.64397544
13	0xbe40edc0	-0.18840694
14	0xbdd05d02	-0.1017399
15	0xbe8e061d	-0.2773904
16	0xbdbbd1c7	-0.09170871
17	0xbc8fe4e4	-0.017565198
18	0xbe38783d	-0.18014617
19	0xbea22c20	-0.3167429
20	0xbd42b4c2	-0.047535665
21	0x3f2ca992	0.67446244
22	0xbd1eafb8	-0.038741797
23	0x3e0831b0	0.13300204
24	0xbee33cc8	-0.4438231
25	0x3ea2f4fa	0.31827527
26	0x3e8f6d90	0.28013277
27	0x3ecb41d9	0.39698675
28	0xbe4acebe	-0.19805428
29	0x3e80a487	0.25125524
30	0x3e022a0f	0.12711357
31	0x3e94a013	0.29028377
32	0xbe3bc960	-0.18338537
33	0xbe97913e	-0.29602998
34	0x3ee37778	0.44427085
35	0xbeb0ce2c	-0.34532297
36	0x3eca5c4a	0.39523536
37	0x3e841558	0.25797534
38	0x3e9e26c6	0.30888957
39	0x3e51d234	0.20490342
40	0xbe8896ae	-0.2667746
41	0xba1b9f5b	-0.00059365266
42	0x3eebd8c6	0.46063823
43	0xbdcda91e	-0.10042022
44	0xbe708973	-0.23489933
45	0xbdae2fd8	-0.08505219
46	0x3dea83db	0.11450931
47	0x3f24dafd	0.6439665
48	0x3d728cd6	0.059216343
49	0x3dc1b685	0.09458641
50	0xbe379ced	-0.17930956
51	0xbd175d3d	-0.036954153
52	0x3df5a312	0.11993994
53	0xbd9af06d	-0.07565389
54	0xbeba815f	-0.36426827
55	0xbe5484cc	-0.20753783
56	0x3e06b735	0.13155825
57	0x3e04341c	0.12910503
58	0x3ec7e50a	0.3904193
59	0x3e2fc37f	0.1716442
60	0xbf3464ff	-0.7046661
61	0x3e0ba50b	0.13637178
62	0x3f2d9585	0.67806274
63	0x3f6b3f9a	0.91893923
64	0x3c022b87	0.007944948
65	0x3e8c11c5	0.27357307
66	0xbef0f063	-0.470584
67	0xbe3244a0	-0.17408991
68	0x3ea29177	0.31751606
69	0xbf09b2c8	-0.53788424
70	0xbc31b8c9	-0.010847279
71	0xbdb84b14	-0.08998695
72	0xbea92350	-0.33034754
73	0x3e868fdd	0.26281634
74	0x3e9b0735	0.30278936
75	0x3de9095a	0.11378737
76	0x3f0cbbc8	0.5497403
77	0x3ec1bf67	0.3784134
78	0xbe95bffa	-0.2924803
79	0x3dff2c26	0.124595925
80	0x3e1af1b6	0.15131268
81	0xbe739810	-0.23788476
82	0x3d9e5772	0.077315226
83	0x3e5c90ec	0.21539658
84	0x3d1b32bf	0.037890192
85	0x3e2548e9	0.16141094
86	0x3cbcdd79	0.023054825
87	0x3c73b0d5	0.014873703
88	0x3b884deb	0.004159679
89	0x3de8aa12	0.11360563
90	0xbe6f1bcd	-0.23350449
91	0x3e88ea62	0.2674132
92	0xbeba658a	-0.36405593
93	0x3e864c99	0.26230314
94	0x3e6bcb42	0.23026755
95	0xbdbd4015	-0.09240738
96	0xbd26d6df	-0.04073226
97	0xbdc5892a	-0.096453026
98	0x3e38ce85	0.18047531
99	0x3e1f3447	0.15547286
100	0x3e8788c1	0.26471522
101	0xbc051fed	-0.0081252875
102	0x3ebcef23	0.36901197
103	0xbe6d47d9	-0.23171939
104	0x3ee7e960	0.45295238
105	0xbe10255e	-0.14076754
106	0xbe3e24c8	-0.18568718
107	0xbeb181d1	-0.34669355
108	0xbe892b1e	-0.26790708
109	0x3e339b11	0.17539622
110	0xbc4e1f9d	-0.012580779
111	0x3de439de	0.1114385
112	0x3d8b1b8a	0.06792362
113	0x3e3e533c	0.18586439
114	0x3e357a06	0.1772233
115	0x3e1a639b	0.15077059
116	0x3e845672	0.25847203
117	0x3df6a31f	0.12042832
118	0xbe18a370	-0.14906096
119	0xbe595ae2	-0.21226075
120	0x3e68c3fb	0.2273101
121	0x3e88f6df	0.26750848
122	0x3f027b4b	0.5096938
123	0x3e2b6752	0.16738632
124	0x3dba53bc	0.09098002
125	0x3ccacc48	0.024755612
126	0x3f1c50e8	0.61060953
127	0x3f002de8	0.5007005
128	0xbe2257b5	-0.1585377
129	0x3d9575a3	0.07297828
130	0x3edcd349	0.43129948
131	0xbcf565c5	-0.029955754
132	0xbd1e5483	-0.038654815
133	0x3f243f59	0.6415916
134	0xbe36a733	-0.17837219
135	0x3f00cef9	0.50315815
136	0x3ed86894	0.42267287
137	0xbe8d92d3	-0.2765108
138	0xbca6b95b	-0.020352056
139	0xbee90c83	-0.45517358
140	0xbea1937f	-0.31557843
141	0xbeb953a5	-0.36196628
142	0x3f2a7e09	0.66598564
143	0x3e8c5a9b	0.27412876
144	0x3d93bd7b	0.07213875
145	0x3e8a2668	0.26982427
146	0x3e8658a8	0.26239514
147	0xbea04faa	-0.3131078
148	0x3e98ad1b	0.2981957
149	0xbdbd2f61	-0.092375524
150	0xbee229dc	-0.4417256
151	0x3db00c33	0.08596077
152	0x3e4333da	0.19062749
153	0x3de4b7ed	0.111678936
154	0x3e8321e0	0.25611782
155	0x3dc4fa0d	0.09618006
156	0x3e0fd6a5	0.14046724
157	0xbe4bf6e2	-0.19918397
158	0x3c80db18	0.015729472
159	0xbe064601	-0.13112642
160	0x3e475bcb	0.1946861
161	0x3e8bb543	0.2728673
162	0x3ced9706	0.029002678
163	0x3e823a82	0.25435263
164	0x3d888750	0.06666434
165	0x3d2dfb32	0.042475887
166	0xbe4c7c65	-0.19969328
167	0x3d88984e	0.06669675
168	0xbebb2ce8	-0.36557698
169	0x3e9da47e	0.3078956
170	0xbe3485c9	-0.1762916
171	0xbc8c1730	-0.0171009
172	0x3e6d8eef	0.23199056
173	0x3d45e994	0.04831846
174	0x3e4b2ea2	0.19842008
175	0x3e49aea1	0.19695522
176	0xbe99b4fa	-0.30020887
177	0x3e8ca8a1	0.27472404
178	0x3e6377ec	0.22213715
179	0x3e169ab7	0.14707457
180	0x3e18cd2a	0.14922014
181	0x3d2a70c8	0.041611463
182	0x3e0600e4	0.13086277
183	0x3e9902fa	0.29885083
184	0x3e69e6b7	0.22841917
185	0x3e051290	0.12995362
186	0xbe96b1ab	-0.29432425
187	0x3df188ae	0.11793648
188	0x3e06f7bc	0.1318044
189	0xbe1d5fe6	-0.15368614
190	0xbee81bb3	-0.45333633
191	0xbe7a6d8e	-0.24455854
192	0x3e085c5e	0.13316485
193	0x3bb4aa65	0.0055134767
194	0xbe3cecf4	-0.18449765
195	0xbdec726c	-0.11545262
196	0xbe0218a2	-0.12704709
197	0xbddb0d0e	-0.10695849
198	0x3e9df568	0.30851293
199	0xbd0c2142	-0.034211405
200	0xbdbbbc2f	-0.091667525
201	0x3ed4fe53	0.41600284
202	0xbdc906f4	-0.09815779
203	0x3e874122	0.2641688
204	0x3e439b96	0.1910232
205	0x3e1a2bf6	0.15055832
206	0xbe8cb0b0	-0.27478552
207	0xbd89359e	-0.0669968
208	0xbce3d780	-0.02781272
209	0xbe5a386b	-0.21310584
210	0x3b9c7b6c	0.004775455
211	0x3e498be8	0.19682276
212	0xbe10edac	-0.14153165
213	0x3c2e12cd	0.0106246
214	0x3e8e7929	0.27826813
215	0x3d9afa95	0.07567326
216	0x3d41a8ba	0.04728005
217	0xbc4dc7a2	-0.012559803
218	0xbe185527	-0.14876233
219	0x3e5aa447	0.2135173
220	0x3de244e6	0.110482976
221	0x3e066e9d	0.13128133
222	0x3de27e85	0.11059288
223	0x3c57f657	0.013181291
224	0xbe4ce699	-0.20009841
225	0xbe7985b5	-0.24367411
226	0xbd938d78	-0.072047174
227	0xbdb1d2ec	-0.08682808
228	0x3e69f7ce	0.22848436
229	0xbbb735d5	-0.005591134
230	0xbcb56722	-0.022143904
231	0x3d57988a	0.052635707
232	0x3e3c2dbc	0.18376821
233	0xbd2bb423	-0.04191984
234	0x3e47f36e	0.19526455
235	0xbd36ea47	-0.044657018
236	0xbdf08d45	-0.11745695
237	0x3cdbeda7	0.02684672
238	0x3d811324	0.06302479
239	0x3bb5f038	0.005552318
240	0x3e0eeec9	0.13958277
241	0x3d9ee44b	0.07758387
242	0xbe118c77	-0.1421374
243	0xbdfb8283	-0.122807525
244	0xbdb966e8	-0.09052831
245	0xbc23256a	-0.009957651
246	0xbdb07c4a	-0.08617456
247	0xbe19578a	-0.149748
248	0x3d25c4ae	0.04047077
249	0xbdb6dc99	-0.089287944
250	0x3eb6fe30	0.35740805
251	0xbd821e82	-0.06353475
252	0xbe3631c8	-0.17792428
253	0x3d8269d2	0.0636784
254	0x3e944adc	0.28963363
255	0x3edb06a8	0.42778516

bias f4 [4]
0	0xbe0f4d1f	-0.13994263
1	0x3d4ee15b	0.050507884
2	0x3e1a93a8	0.15095389
3	0xbe5ca409	-0.2154695

weight f4 [64, 4]
0	0x3ea1183c	0.31463802
1	0xbe42cf14	-0.19024307
2	0xbea2efa8	-0.31823468
3	0xbf91e54e	-1.1398103
4	0x3e8f92ea	0.28041774
5	0xbe391cc9	-0.18077387
6	0x3eb45390	0.35220003
7	0xbf868006	-1.050782
8	0x3e0c9afc	0.13730997
9	0x3f0bda75	0.54630214
10	0xbe21caa2	-0.15799955
11	0xbd453db2	-0.04815454
12	0x3f3f7e3b	0.7480199
13	0x3e8d786d	0.2763094
14	0xbe31edc1	-0.17375852
15	0xbdf74583	-0.12073805
16	0x3d60fa44	0.054926172
17	0xbf3197e3	-0.69372386
18	0x3f21085c	0.6290338
19	0xbf42a961	-0.760397
20	0xbebd5cc2	-0.3698483
21	0x3f6ee5d1	0.9331942
22	0xbeaa9ac8	-0.33321214
23	0xbf5de9e6	-0.86685026
24	0x3dadd0e2	0.08487107
25	0x3ef98daa	0.48740894
26	0xbea23f86	-0.3168909
27	0xbddfd4a2	-0.10929228
28	0x3f47e4a6	0.78083265
29	0x3f18db35	0.59709483
30	0xbf634584	-0.8877795
31	0xbe115545	-0.14192684
32	0x3f72811a	0.94728243
33	0x3e824aee	0.25447792
34	0xbf059f59	-0.5219627
35	0xbe874d43	-0.26426134
36	0xbf556799	-0.833612
37	0xbf48fe61	-0.7851315
38	0x3f4a4d7b	0.79024476
39	0xbe4ac95b	-0.19803374
40	0x3f1023fe	0.5630492
41	0x3f0b20ef	0.5434713
42	0xbf55ee48	-0.83566713
43	0x3e09c2ca	0.13453212
44	0x3f3eb7aa	0.74499
45	0x3f29cfc0	0.66332626
46	0xbdcceda2	-0.10006262
47	0xbead1082	-0.33801657
48	0xbea3293a	-0.3186739
49	0xbe247db6	-0.1606358
50	0x3f35f02d	0.71069604
51	0xbee387f6	-0.44439667
52	0x3f23420d	0.6377266
53	0x3f1c2953	0.61000556
54	0xbe5e3f12	-0.21703747
55	0x3e97428a	0.29542953
56	0x3d8063fc	0.062690705
57	0x3ef870bd	0.48523512
58	0xbe6c0911	-0.23050334
59	0x3d347379	0.044055436
60	0xbe966bff	-0.2937927
61	0x3ee18ac1	0.44051173
62	0xbf0a3b58	-0.539968
63	0x3f3c1577	0.7347025
64	0x3f11a79c	0.56896377
65	0x3e07c723	0.13259558
66	0xbf047b2b	-0.5175044
67	0x3dc6ff9a	0.09716721
68	0x3f022232	0.5083343
69	0x3ec4b3e7	0.38418505
70	0xbe624111	-0.22095133
71	0xbe43c696	-0.19118723
72	0xbeb94e68	-0.36192632
73	0x3eb510ff	0.3536453
74	0xbea41e10	-0.32054186
75	0xbdb82a00	-0.08992386
76	0x3e14cf94	0.1453231
77	0x3e0a5d1f	0.13512085
78	0xbddbeea5	-0.10738877
79	0x3e28cb0d	0.16483708
80	0x3e02fe64	0.12792355
81	0xbeb16ca4	-0.346532
82	0x3eb034f3	0.34415397
83	0xbc957e4f	-0.018248705
84	0x3edda531	0.43290094
85	0xbea064ee	-0.31327003
86	0xbecdda60	-0.4020567
87	0x3d84d967	0.06486779
88	0x3f2ead2d	0.68232995
89	0xbf6007cd	-0.87511903
90	0x3f45a2a3	0.7720129
91	0xbf29b48e	-0.6629113
92	0x3f84b276	1.0366962
93	0x3d6e486c	0.058174536
94	0xbe4d96a5	-0.20076998
95	0xbe1d92e5	-0.15388067
96	0xbde1b6c9	-0.110211916
97	0xbd526810	-0.051368773
98	0x3de6b233	0.112644576
99	0x3d1ebc98	0.038754076
100	0x3e1e3c7f	0.15452765
101	0x3edc1e81	0.42992023
102	0xbe5f66a6	-0.21816501
103	0x3e6b227e	0.22962376
104	0x3edd2670	0.43193388
105	0x3f3f4f7e	0.7473067
106	0x3e8029e9	0.25031975
107	0xbd871550	-0.06595862
108	0x3ef07499	0.46963957
109	0x3e27cc47	0.1638652
110	0xbf233049	-0.6374555
111	0xbe4befbf	-0.19915675
112	0x3dcc542c	0.09976992
113	0xbf31503f	-0.6926307
114	0xbf8e9754	-1.1139932
115	0xbede1121	-0.43372443
116	0x3e75d2b3	0.24006157
117	0xbe35ecd0	-0.17766118
118	0x3f114ccd	0.56757814
119	0x3e209bf8	0.15684497
120	0x3ef95358	0.486964
121	0x3d76aaa1	0.06022132
122	0xbf3952e2	-0.72392094
123	0x3f8c9ff5	1.0986315
124	0xbebd2f87	-0.36950323
125	0xbecf7b4d	-0.4052376
126	0xbeb690c9	-0.35657337
127	0xbf0387d5	-0.5137914
128	0xbe99ba04	-0.3002473
129	0xbf00059d	-0.50008565
130	0x3efcb558	0.49357104
131	0x3ca6d679	0.02036594
132	0x3e84613d	0.25855437
133	0xbee05d81	-0.43821338
134	0x3dd96cee	0.1061648
135	0xbdaf0eab	-0.085477196
136	0x3eba177a	0.36346036
137	0xbe8be03e	-0.2731952
138	0x3deb9c00	0.11504364
139	0x3f299b43	0.66252536
140	0xbdf9f466	-0.122048184
141	0xbf3a541e	-0.727846
142	0x3ecdaf8d	0.40172997
143	0xbe183a8a	-0.14866081
144	0xbe916252	-0.28395325
145	0xbf2082f1	-0.626998
146	0xbef499a7	-0.47773477
147	0x3e2278d0	0.15866399
148	0xbe864966	-0.26227874
149	0x3ec3b51a	0.38224107
150	0xbe3293d0	-0.17439198
151	0xbda23f44	-0.07922223
152	0xbea474ba	-0.32120305
153	0xbf38b252	-0.72147095
154	0x3dc2fe13	0.09521117
155	0x3d9a37af	0.07530152
156	0x3e921314	0.2853018
157	0x3ec210a9	0.37903336
158	0x3ea24abe	0.3169765
159	0x3e26cad4	0.1628831
160	0x3f3e1886	0.7425617
161	0xbe5443d5	-0.20729001
162	0x3e5990ec	0.2124669
163	0x3da303a6	0.0795968
164	0xbeb1e4cd	-0.34744874
165	0x3e900e2b	0.2813581
166	0xbf0173a9	-0.5056711
167	0x3d1a9fca	0.037750043
168	0xbe8ef3c0	-0.27920341
169	0x3eefb830	0.4682021
170	0x3e928658	0.2861812
171	0xbeec3f70	-0.4614215
172	0x3f13a0bc	0.57667136
173	0xbec71fe2	-0.38891512
174	0x3ea5ed80	0.3240776
175	0xbe9d68ef	-0.3074412
176	0xbe5b9a8c	-0.21445674
177	0xbde0d69b	-0.10978433
178	0x3f5edeee	0.87058914
179	0xbd8e1ca0	-0.069390535
180	0xbd859c02	-0.06523897
181	0x3f1f2023	0.6215841
182	0xbf830753	-1.023661
183	0xbe9f3682	-0.31096274
184	0x3ef6503b	0.48108086
185	0xbe74b54b	-0.23897283
186	0x3e7ec37e	0.24879262
187	0xbed007a9	-0.40630844
188	0x3dfd3c6c	0.1236504
189	0x3e4a08c8	0.19729912
190	0xbf2d8538	-0.677814
191	0x3fa3d890	1.2800465
192	0x3f245fde	0.6420878
193	0x3e0add78	0.13561046
194	0x3db63ad6	0.08897941
195	0xbebe7a3b	-0.3720263
196	0x3ee23c91	0.44186834
197	0xbcb93edb	-0.02261298
198	0xbda41e0e	-0.08013545
199	0x3dff61a9	0.12469799
200	0x3ead544e	0.33853382
201	0xbf5eef72	-0.87084115
202	0x3db7e9ba	0.08980127
203	0xbff42a54	-1.9075418
204	0x3ebbab82	0.36654288
205	0xbf698d55	-0.9123128
206	0x3eb0d6a9	0.34538773
207	0xbf0c9127	-0.54908985
208	0xbf0730fd	-0.52809125
209	0xbee687cd	-0.45025483
210	0x3eda360d	0.42619362
211	0x3e7e03e8	0.24806178
212	0x3ec63147	0.3870947
213	0xbf3e100e	-0.7424325
214	0x3eba0795	0.3633391
215	0xbdb5769c	-0.088605136
216	0xbedb844e	-0.42874378
217	0xbf6759c9	-0.90371376
218	0x3e96ec2c	0.2947706
219	0xbe8c287d	-0.2737464
220	0x3e84b848	0.25921845
221	0xbef8a740	-0.48565102
222	0x3f1a575f	0.6028957
223	0xbf04ff97	-0.519525
224	0x3d5b2b23	0.053507935
225	0xbd9f7b40	-0.0778718
226	0x3ecd5867	0.40106508
227	0xbba2a6e9	-0.004963745
228	0x3f0a6823	0.5406515
229	0x3f300c24	0.68768525
230	0xbf079ee7	-0.5297684
231	0x3d4e2b75	0.050334413
232	0x3d824b59	0.06362028
233	0xbea96805	-0.33087173
234	0x3f38b824	0.72155976
235	0x3ca4fee6	0.020141076
236	0x3fc9d5c7	1.5768365
237	0x3d3aaf82	0.045577534
238	0xbed43013	-0.41442928
239	0xbe087664	-0.13326412
240	0x3e8d066c	0.27543962
241	0x3e34674d	0.17617531
242	0xbf8249c7	-1.0178765
243	0x3e61a16e	0.22034237
244	0x3e6a90e5	0.22906835
245	0xbf4da432	-0.8032867
246	0xbe11d7cc	-0.14242476
247	0xbeb2ea8b	-0.34944567
248	0x3e276d78	0.16350353
249	0xbdb21c3d	-0.08696792
250	0x3f3613e5	0.71124107
251	0xbf327a17	-0.69717544
252	0x3e0becef	0.13664602
253	0xbefabf61	-0.48974136
254	0x3f700a05	0.9376529
255	0xbcb90430	-0.022585005

bias f4 [64]
0	0xbe78b7c6	-0.24288854
1	0xbed98e63	-0.42491445
2	0xbefac6f7	-0.48979923
3	0xbd959f98	-0.07305831
4	0xbf1a71b1	-0.6032973
5	0x3f11fabc	0.57023215
6	0x3d1f3652	0.038870163
7	0x3e74d6b3	0.23910026
8	0x3e109b67	0.14121781
9	0xbeafe522	-0.34354502
10	0xbedd8cad	-0.4327139
11	0x3e4f42f1	0.2024038
12	0x3f109b83	0.5648729
13	0x3ecb2337	0.39675304
14	0xbd303db1	-0.043027584
15	0xbe8f5077	-0.27991077
16	0xbe4533ee	-0.19258091
17	0x3e7097d6	0.23495421
18	0x3da999e4	0.082813054
19	0x3e8bd4ed	0.27310887
20	0xbdcc1da3	-0.0996659
21	0x3ea1ad08	0.31577325
22	0xbbd8cfec	-0.006616583
23	0xbe1b318f	-0.15155624
24	0x3eb1641b	0.34646687
25	0xbe870c1c	-0.26376426
26	0x3d42c8e1	0.047554854
27	0x3ea917e8	0.33026052
28	0xbdb6770f	-0.089094274
29	0xbdcd4c6c	-0.10024342
30	0xbef4024d	-0.47658005
31	0xbd29d461	-0.041462306
32	0xbe462403	-0.19349675
33	0x3ee0682a	0.4382947
34	0x3d40b78b	0.04705004
35	0xbed12dfc	-0.40855396
36	0xbe9d2951	-0.30695584
37	0xbe2a3352	-0.1662114
38	0x3e00dde6	0.12584648
39	0x3e15eafe	0.14640424
40	0xbf0a9219	-0.5412918
41	0x3ec36753	0.38164768
42	0xbf213813	-0.6297619
43	0x3e09d44a	0.13459888
44	0xbf204d15	-0.6261762
45	0xbd598838	-0.053108424
46	0xbf10bcfd	-0.56538373
47	0xbeb90714	-0.36138213
48	0x3e92ee1f	0.28697297
49	0xbeb0668a	-0.3445323
50	0x3e2d6c50	0.16935849
51	0xbe3fb60b	-0.18721788
52	0x3e95c8e9	0.29254845
53	0xbd957ec2	-0.07299568
54	0xbeed5e5d	-0.46361056
55	0xbd7034df	-0.05864417
56	0xbe01d8f6	-0.1268042
57	0xbea8f13a	-0.3299654
58	0xbde01378	-0.10941213
59	0xbe5d24bb	-0.21596043
60	0x3e5f6503	0.21815877
61	0xbf0646f8	-0.5245204
62	0x3e6bc8ea	0.23025861
63	0x3e8a891f	0.2705774
